gin_model_weights.pth (torch, 567555 bytes, 16 tensors)

conv1.nn.0.weight f4 [128, 384]
00000000: 0e5e 24bd 6c57 ca3c 43cf 25bd 0221 d43c
00000010: a12d 35bd 02fa ef3c 2ab4 353d a718 64bc
00000020: 0c36 7f3c 80a2 383c 02fa 3dbd 05b3 2bbd
00000030: 1783 bd3b 0840 24bd e223 1a3d 6e01 623a
00000040: fca1 c13b ecf5 21bd 9c41 1e3d 28cf 0d3d
00000050: 7b9f 54bd 420d fabc fad6 35bc 6a81 b9bc
00000060: 9d5c 6d3c 40ba 103d f07e 1f3d 2579 c3bc
00000070: d50d a3bc 34f8 3fbd e677 8fbc 5d7b c7bc
00000080: 992a 4d3c 680b ec3b fdf0 2bbd 8ee2 363d
00000090: 8c76 183b e524 86bc acd8 7f3b 1df7 c13c
000000a0: 7c8b 143d f41d d7bc dc47 3c3d ea70 5bba
000000b0: 302a d9bc 43ca 103d 7199 3dbd e105 ea3c
000000c0: 8696 19bd 194e a2bc 258c 473d 5979 a13c
000000d0: ec28 a2bc f0ab 92bb 681d 94bc e5de 333d
000000e0: 3661 00bb 0a86 4d3d a0ad 1dbd 00c4 f5bc
000000f0: 13c9 f4bb 42a5 40bd 8d5d 7dbc 1fef 25bd
00000100: c8d0 96bb aba1 91bc 5fcb 673c 1b5a 37bb
00000110: d2e2 d8bc 9871 ca3c 6811 12bd a91c 3bbd
00000120: c81d 4abd 4bf9 983a 87f8 78bb ece3 bcbc
00000130: e6e0 a73c 787d ad3c 2aee 883c dac9 c33b
00000140: fb67 af3c 8b03 03bc db42 eb3c 9a14 45bd
00000150: aefe 2bbd 7566 1fbd 4d76 153d d713 3a3d
00000160: 7d61 043d 037b 233d bb2f 0c3c e996 833c
00000170: f434 e1bc 65b3 f93c bb60 013b d19e d7bc
00000180: 0fe3 2cbd 2a19 4d3d 441b 02bc d861 c73c
00000190: 7b8b 0b3d 9d92 cabc e61b b9bc f436 d0bc
000001a0: babe 1d3c 93c9 2b3d f810 cebb 940b adbc
000001b0: e73b 1c3d 1b0e f5bc 0448 42bd 967d 67bb
000001c0: 1c28 d6bc d849 9cbc 788d a83c cc25 793c
000001d0: a0b6 0abb 7ab7 0e3d b81d 12bd df91 16bd
000001e0: a9bd 8f3c a850 0cbc ffbc f6bc 315d ccbc
000001f0: 30cb 403d 6127 1d3d 3ea5 bb3c 12eb 11bd
00000200: 9b1b 363d 2d89 333d d29e 1b3c 5885 973c
00000210: ee81 4c3d 5639 34bd e9d7 5dbc 2cf5 803b
00000220: d206 05bd 967e 273c 6a73 733c 548a 0cba
00000230: 8e19 6d3c cee4 e13c 6434 3e3c 537e 2dbd
00000240: 9cac de3c 5908 26bd 2b7c 0a3d 9e97 fbbc
00000250: ebbf 3f3d 7d85 5cbc 48fb d2bc 24ef cf3c
00000260: 9bbb 153d 678e 1c3d 69ee a4bc 734e eb3b
00000270: 5490 ca3a b0b6 8fbc 0516 013d c95b 16bd
00000280: 37b1 b7bc 8567 c23b 4321 32bd d5b1 debc
00000290: a58e 183d c07a bebc f66b 383d 7eab 113c
000002a0: 423f 183d fb3e 1dbd 5a34 2ebd 7a31 093c
000002b0: e0dc 343d 5e6a df3c 9e2c 58bd c739 babc
000002c0: 3ff9 95bc 5d19 3b3c f74b 1d3d 4eeb 84bc
000002d0: 1cb0 6bbb 0be8 cf3c ccfd 113d 7207 493d
000002e0: 2357 3eba 46c1 1a3b a3fc 9dbb 25a8 5ebb
000002f0: 29aa e8bc 664a 973b 6383 9e3c 53c6 003d
00000300: a1e6 273b 3dcb cb3c 7bbc ff3c 4434 a9bb
00000310: cda2 883c 035e d6bc d589 993c 00f3 51bd
00000320: b395 b2bc 3e61 ca3c 3958 593c e59f 2ebc
00000330: 95a5 78bc 00a1 21bc 11c8 68bc 16d7 48bd
00000340: 89ac 41bd 78ec f9bc a6ed 403c 44ec d6bc
00000350: 4d12 063d 2e9b f33c 8afc 9d3b 87ac 4a3d
00000360: fc60 ad3c ca10 33bd 32f0 4a3d b9c3 42bc
00000370: 2a0b f83c a6f9 3d3d 4133 f23c 38b4 c2bb
00000380: 587b 013d 8fc6 97bc a916 2d3c c946 1bbc
00000390: dce1 d93c 70da b43c 6bd8 c03c cd72 d23b
000003a0: c86c 453d 9759 34bd 309d 04bd 0dd4 25bc
000003b0: 16f6 df39 9af3 223d e532 253d 05af a03c
000003c0: 0c56 183d bfd0 3c3d 9af4 c8bb 5938 78bc
000003d0: 63d1 0f3d f12e f33b 699e be3c 7143 de3c
000003e0: e5b9 1abd 85a3 2d3d d72f 33bd 0611 04bd
000003f0: 5c1d 283c ca6b d43c e49c f13c b6a2 2ebd
-0.04012876 0.02469989 -0.040480863 0.025894646 -0.04423297 0.029294018 0.04436127 -0.013921893
0.015576851 0.011269212 -0.046381004 -0.041918773 0.0057834494 -0.040100127 0.037631877 0.0008621429
0.0059092026 -0.03954117 0.03863679 0.034621388 -0.051909905 -0.0305239 -0.011098618 -0.022644717
0.014487413 0.03533387 0.038939416 -0.023861477 -0.019904057 -0.046867564 -0.017513227 -0.024350816
0.012522363 0.007203508 -0.04197787 0.044649653 0.0023264019 -0.016375015 0.0039039059 0.023677403
0.036265835 -0.0262594 0.045966968 -0.00083710125 -0.026509374 0.03534914 -0.04628891 0.028567256
-0.037497066 -0.01981263 0.048717637 0.019711183 -0.019794904 -0.004476063 -0.018080428 0.04391374
-0.0019589192 0.050176658 -0.03849566 -0.030000687 -0.007470259 -0.047032602 -0.015464199 -0.040511247
-0.0046025254 -0.017777285 0.014147609 -0.002797729 -0.026475344 0.024712369 -0.03566113 -0.04568163
-0.049344808 0.0011670975 -0.003798993 -0.0230579 0.020492982 0.021177992 0.016715128 0.0059749903
0.021411886 -0.00799645 0.028718403 -0.04811535 -0.04199093 -0.03891607 0.036489774 0.045429077
0.032319535 0.039912235 0.008556302 0.01606317 -0.02749107 0.03048105 0.0019741494 -0.026320847
-0.042208727 0.050072826 -0.007941071 0.024338648 0.034068566 -0.024728114 -0.02259631 -0.025416829
0.009627992 0.041940283 -0.006288644 -0.021123685 0.038143065 -0.029913953 -0.04743196 -0.0035322658
-0.026142173 -0.01907818 0.02057527 0.015206765 -0.0021165982 0.034842946 -0.035672873 -0.036760207
0.017546492 -0.008564152 -0.030119417 -0.02494678 0.047068775 0.038367633 0.022905942 -0.03562457
0.04445992 0.043831993 0.009498315 0.0184962 0.049928598 -0.043999992 -0.0135402465 0.0039354768
-0.032477207 0.0102230515 0.01485906 -0.00053611887 0.014471425 0.027574923 0.011609171 -0.0423568
0.027181916 -0.040535305 0.033809822 -0.030711945 0.046813887 -0.01345956 -0.025754586 0.025382586
0.036555868 0.038221743 -0.020133214 0.0071809827 0.001545439 -0.017543167 0.03151514 -0.036708627
-0.02242337 0.0059327506 -0.043488752 -0.027184406 0.03724541 -0.023251891 0.045024835 0.008890985
0.037169702 -0.03839014 -0.042530395 0.008373613 0.044155955 0.0272724 -0.052776925 -0.022732629
-0.018307326 0.011419621 0.038402524 -0.016225483 -0.0035963124 0.025379201 0.03564243 0.049079366
-0.0007260909 0.0023613735 -0.0048213764 -0.0033974734 -0.028401451 0.0046170233 0.01934976 0.031439137
0.0025619643 0.024877185 0.031217804 -0.0051637013 0.016679192 -0.026167875 0.018742481 -0.051257133
-0.021799898 0.024704572 0.013265663 -0.010658239 -0.015176197 -0.009865046 -0.014207856 -0.049033247
-0.047283683 -0.030508265 0.01177541 -0.026235707 0.032732297 0.029737081 0.004821365 0.04948094
0.02116441 -0.043717183 0.049545474 -0.011887484 0.030278761 0.04638066 0.029565455 -0.005941894
0.03161177 -0.018527297 0.010564485 -0.009477326 0.026596956 0.022076815 0.023540696 0.0064223767
0.048199445 -0.044030752 -0.03237647 -0.010121358 0.00042717223 0.039783098 0.04033174 0.019614706
0.037191436 0.046097513 -0.0061326744 -0.015150153 0.035111796 0.0074213673 0.023268895 0.027131768
-0.03777494 0.042392273 -0.043746796 -0.032242797 0.010260906 0.025930304 0.029493757 -0.042635642

conv1.nn.0.bias f4 [128]
00000000: fb60 0d3d 85b1 333d 0901 433d 4e9c 513d
00000010: 15bc 32bd 6efa 01bd dd2d b5bc 9ae7 973c
00000020: ed49 ff3b 6a7f 34bd f006 d23c 09ec 03bd
00000030: b1f5 3bba e2b6 03bd 896a b63c 7e93 40bd
00000040: a6f1 243d 810f 5fbc fc3a 04bc 57e8 4cbc
00000050: 0b0b e1bc 3fd6 a5bc d1ef cf3c 951f 083c
00000060: 5ea7 ec3c c4a9 063c 4a28 b8bc aa10 71bc
00000070: 84c4 acba 3898 f9bc 2ac5 df3c 32a6 e03c
00000080: 980c 133d b6a8 debc f311 b6bc 0279 ef3c
00000090: 74b1 e4ba 82e8 473d 461a 64bc 34b5 063c
000000a0: dc14 c4bc 0497 52bd f0ad 1a3d 564d 9d3c
000000b0: 5dcb f8bc 01d9 8d3c 80ff 03bd 765d 1c3d
000000c0: 6dc4 593c 6bd0 70bc edc6 fb3c b0f4 163d
000000d0: bb80 21bd fe09 ce3b 9b53 c7bc 4ff8 e13b
000000e0: 4e0d 5f3d e9c0 843c fe27 1f3d ac6d 053d
000000f0: d6f6 503c 859b 2abd 0a54 fbbc 6fcc 0d3d
00000100: 7819 cfbb 404b 3cbb 3921 3bbb 3232 48bb
00000110: c34d 303b 5dc7 07bc d0e1 4b3d d383 8f3c
00000120: c03a a23b f0d3 2d3c bb50 1d3d d413 213d
00000130: db1a f93c 0b62 463c ebdd 32bd 1529 b93c
00000140: 9d1e 3b3d 6be8 18bd b6a1 2dbd ca51 a4bb
00000150: 333b fa3c 69d4 e6bc 7023 35bc f237 143d
00000160: 3a13 b4ba c0d4 cfbc 9e5b 113d 49af e7bc
00000170: 66f1 05bd 44da 463d 3ca7 2e3d c5bc 203d
00000180: bc0d e3bc 0e2d 72bb e62c 2bbd 7bb1 39bd
00000190: ab8b 12bd 6a2a 55bc 9689 0cbd 668a a0bc
000001a0: fb09 9a3c d0a1 8dba 8874 9c3c 6b0a b6bc
000001b0: adae 4b3c 5a9f 0dbd cd0e 993c f5a5 313d
000001c0: 008d 20bd a6af 9fbc 20cc 603c b536 923c
000001d0: 3958 b6bc 0d1f a43c 3299 e8bc 5dc2 cd3b
000001e0: 315a edbb 5ab9 d33c 2889 44bd 1b24 d13c
000001f0: 6fcb 173d d51e 263d 898b e0bc dfea 5cbb
0.034516316 0.043870468 0.04760841 0.051174454 -0.0436364 -0.03173297 -0.022116596 0.018543053
0.007790795 -0.044066824 0.025638074 -0.032207523 -0.0007170095 -0.032156833 0.022267597 -0.04701566
0.040269516 -0.013614536 -0.008070704 -0.012506566 -0.027471086 -0.020243762 0.025382908 0.008308311
0.0288884 0.008219186 -0.022480149 -0.014713446 -0.0013181125 -0.030468091 0.027315695 0.027422998
0.035900682 -0.027180057 -0.022225356 0.029232506 -0.0017447905 0.04880572 -0.01392228 0.008221913
-0.023935728 -0.05141355 0.037763536 0.019201916 -0.030370409 0.01731539 -0.032226086 0.03817507
0.01329146 -0.014698128 0.030734504 0.036854446 -0.039429408 0.0062878123 -0.024331858 0.006896056
0.054456048 0.016205268 0.0388565 0.032575294 0.012754163 -0.04165222 -0.030679721 0.03461879
-0.006320175 -0.0028731376 -0.0028553738 -0.0030547497 0.0026901818 -0.008287278 0.0497759 0.017518913
0.004950851 0.010609612 0.03840707 0.03932555 0.030408313 0.012108336 -0.04366867 0.022602597
0.045683492 -0.037331026 -0.042390548 -0.005014633 0.030545807 -0.028177457 -0.011055812 0.036186166
-0.001373864 -0.025370002 0.035487764 -0.028281825 -0.03270092 0.048547998 0.042639956 0.039242525
-0.02771651 -0.0036953124 -0.041790865 -0.045335274 -0.03577773 -0.013010601 -0.0343109 -0.019597244
0.018803587 -0.001080567 0.019098535 -0.022221765 0.012431783 -0.034575798 0.018683815 0.04337116
-0.039196968 -0.019492935 0.013720542 0.017848352 -0.022258865 0.020034337 -0.028393362 0.0062792734
-0.0072434177 0.025845218 -0.047982365 0.025529912 0.037059244 0.040556747 -0.027410286 -0.003370933

conv1.nn.2.weight f4 [128, 128]
00000000: 5649 a13d 9963 c43c bcf7 893d d3d4 66bd
00000010: fc68 63bd 3f8f 733d fd69 523c b658 15bc
00000020: 85a7 823d 501f 383d ca29 11bc 2496 8ebb
00000030: b629 ccbc 703f b7bd ef22 0fbc 9b00 a43d
00000040: 44c8 b93c 0898 1ebc 28f2 ba3c 1973 533c
00000050: 25de aabd a00e ee3c c370 31bd eae6 653d
00000060: a76e 6dbd 41f9 b23c 9eeb 77bd 1dea 9dbd
00000070: d87f a83c f1fc ee3c abd3 783c 881d 4ebb
00000080: 0bff 9d3d 402a 6d3d eff5 8a3d 7e42 9cbc
00000090: e353 893d c4b9 2fbc 4ccb 94bc 04c2 1d3b
000000a0: 9ed3 7e3c efc1 04bc b9b2 f6bc c27a 1b3d
000000b0: f8fa 99bc f6d3 92bd 1af9 9cbd fbd2 4dbd
000000c0: 0af0 053d a0da 9fba 3b04 163d 11c9 06bd
000000d0: ce7d 543a 2542 133c cf0e b4bd ce82 54bc
000000e0: c024 9a3d 8cd3 40bb 0738 8e3d 2866 30bd
000000f0: 307e 0f3d b3bf 52bd 9564 a93d 3240 9cbd
00000100: 6c5c c73c e7ae 303c d0c1 84bb a8ac c6bb
00000110: 3826 cabb f679 f0bc 8a27 523d 9faf 443d
00000120: 6db5 973d 8ef5 6abd 81c2 3ebc a6f5 98bd
00000130: c67c 88bd 2f3e d33c 4e92 023d 2bd0 a8bc
00000140: 37c4 273d 3451 ccbc e870 84bd c96b 6f3d
00000150: aef9 a53d 43a0 2cbd 5585 b33c 37a0 393d
00000160: 3f41 a9bd eed9 8f3c 017d 90bd b8d9 5b3c
00000170: 0084 51bd c1c4 093d c737 7abd 07e3 843d
00000180: 7ea7 4bbd efdb 88bd 7b3f 303d 3e72 22bd
00000190: 0ad3 8ebd 4bf2 af3d 6a3f bcbb 28d9 8eba
000001a0: 5642 883d 5eae d43a 2e44 473d 14d8 a6bd
000001b0: 7197 35bd df74 143c 8b88 d53b f4e4 753d
000001c0: 00df 8d3d 0800 393c e705 9dbc f1d1 5a3d
000001d0: 303f fcbc bd33 c4bc 1c1f 673c 8cf8 933d
000001e0: ff85 91bd ec3a babd 962d d5bb e1c0 a23d
000001f0: 7a91 95bd 8aad 1f3d 8ab1 b0bd 3ad1 913d
00000200: 827c 2e3c 63c8 183d 163b 45bd d26c 0a3d
00000210: b334 96bd 5395 923d b8e9 5cbd efd6 92bd
00000220: e242 763d 54a1 20bd 5d5c e93c 412b f63c
00000230: 9b74 653c 7838 073d efa8 813d a24f 66bd
00000240: 50cc c9bb 9a9f b0bc 008c d23b 0b0f 663d
00000250: 003f e6bb e465 7ebd fe03 febc 22a9 cd3c
00000260: 42cd 39bd e821 7f3d 9252 4c3c efa4 80bd
00000270: e850 613b c0df 833d a20f ab3d 55bf 893d
00000280: 72eb 27bd 184f 813c bbed 81bb 217a a8bd
00000290: 6903 943c 7a19 f13a f316 35bd c685 f23c
000002a0: c021 fb3c f7a6 093c e021 6bbb 4875 36bc
000002b0: 6947 4fbd 4757 453d 3575 843b a1b7 4e3d
000002c0: e46c 123c 24f6 6e3d 3093 a0bd c936 f63a
000002d0: 3175 1cbd 255c a43d c499 12ba 3bb0 28bc
000002e0: 9075 eb3c 6f5f d03c f013 00bd 7a23 98bc
000002f0: 30a7 4eba 52e4 063d 0d75 7ebd 3d43 b13c
00000300: c1bd 4d3d c346 a23d 24bd 9f3d a51c 13bd
00000310: aeab b1bc 7528 24bd 8948 79bd 6d10 2ebd
00000320: 90ff 9abc ecb4 9dbc 95f9 ad3c c2e4 bbbc
00000330: 438e 043b 6793 433d e393 aa3d 58a3 88bd
00000340: cf39 77bc 39da 06bd c7b1 503d 9b74 a4bd
00000350: 105c abbd d663 393d 757b d2bc e584 733d
00000360: 2461 d53c f97b 913d ae7e a93d 1bf8 2a3d
00000370: e2af 753d af9b 6f3d bedc 8bbd 2076 013c
00000380: 2994 6fba a09b 03bd c357 95bd 34ef 9f3d
00000390: 1bba 353d 00cd 8dbd f61f a13d f817 cd3c
000003a0: c706 a93d 5cea 213d 298b 69bd 3756 6abd
000003b0: 6847 943c a777 a5bc f67a 86bd 2d7d 14bd
000003c0: 695a f0ba 8216 f63c c912 83bc 3344 56bd
000003d0: f4af 3abd b378 1e3d dd79 42bd d982 a0bd
000003e0: 9be5 183c bbf5 87bd 136e 1cbd 1954 bbbc
000003f0: 6e83 a83b cf37 8d3d 5dff 8ebd f0a8 8f3d
0.07875316 0.023973273 0.06736705 -0.05635531 -0.055520043 0.059462782 0.012842652 -0.009115389
0.06379608 0.044951737 -0.008860061 -0.0043513943 -0.024922233 -0.089476466 -0.008736356 0.08007928
0.022678502 -0.009679802 0.022820547 0.012905859 -0.08343152 0.029059708 -0.04332043 0.05612842
-0.057966854 0.02184737 -0.060527436 -0.07710669 0.020568773 0.029173346 0.015187184 -0.0031450707
0.07714661 0.05790162 0.06785189 -0.019074675 0.06705453 -0.010725442 -0.018163346 0.002407194
0.015553383 -0.008102878 -0.030114518 0.037958868 -0.018796429 -0.071693346 -0.076647 -0.050250035
0.032699622 -0.0012195893 0.03662513 -0.032906596 0.00081059046 0.008987938 -0.08791887 -0.012970639
0.07526541 -0.0029422967 0.0694428 -0.043066174 0.03503245 -0.05145235 0.082711376 -0.07629432
0.024336062 0.0107838875 -0.0040514246 -0.0060630627 -0.006169107 -0.02935503 0.05130724 0.048019048
0.07407651 -0.057363085 -0.011643053 -0.07468729 -0.06664424 0.025786487 0.03187781 -0.020607075
0.04095861 -0.024941064 -0.06466848 0.0584524 0.08104263 -0.042145025 0.021914164 0.04531881
-0.08264398 0.017559972 -0.070550926 0.013418607 -0.051151276 0.033634905 -0.06108835 0.064886145
-0.04972028 -0.06682574 0.04302929 -0.03965973 -0.06973846 0.085911356 -0.0057448642 -0.0010898458
0.066532776 0.0016226282 0.048649006 -0.081466824 -0.04433388 0.009061067 0.0065165213 0.0600328
0.069272995 0.011291511 -0.019167854 0.053422872 -0.030791849 -0.023950452 0.014106538 0.07225141
-0.07105636 -0.0909327 -0.0065056784 0.07946945 -0.07303138 0.03898386 -0.08627613 0.07119985
0.010649802 0.03730048 -0.048152052 0.033795185 -0.0733427 0.071573876 -0.05393383 -0.071699016
0.06012238 -0.039216354 0.028486425 0.030049922 0.014004852 0.033012837 0.0633105 -0.056228288
-0.006158389 -0.021560479 0.0064253807 0.05616669 -0.007026553 -0.06210889 -0.031007763 0.025105063
-0.045361765 0.062288195 0.012470858 -0.062814586 0.00343805 0.06439161 0.08352591 0.06725947
-0.040996023 0.015784785 -0.0039651073 -0.08226419 0.018068032 0.0018394433 -0.04421134 0.029604804
0.030655742 0.008401624 -0.0035878345 -0.0111363605 -0.05060521 0.048178937 0.0040422925 0.05046809
0.008937094 0.058340207 -0.07840574 0.0018784638 -0.0381977 0.08025388 -0.0005592371 -0.010295923
0.028742582 0.025436131 -0.031269014 -0.018571604 -0.0007883189 0.032932587 -0.062123347 0.021638507
0.05022979 0.07923653 0.077997476 -0.03591599 -0.021688309 -0.040077645 -0.06086019 -0.042496134
-0.01892069 -0.01925131 0.021237174 -0.022936229 0.0020226396 0.047747996 0.083289884 -0.0667178
-0.015089466 -0.032922957 0.05095079 -0.08030053 -0.08367169 0.045261227 -0.025693635 0.05945291
0.026047297 0.07103724 0.08276115 0.041740518 0.059982188 0.05849808 -0.068292126 0.007901698
-0.0009139204 -0.032130837 -0.0729213 0.07809296 0.044366937 -0.06923866 0.07867424 0.025035843
0.08253246 0.039530143 -0.05701748 -0.057211127 0.018100455 -0.020198656 -0.06566422 -0.03625219
-0.0018337491 0.03004003 -0.016000168 -0.052311134 -0.04557796 0.038689326 -0.0474795 -0.07837457
0.009332086 -0.06638666 -0.038190912 -0.02286725 0.0051426208 0.0689541 -0.069823004 0.07014644

conv1.nn.2.bias f4 [128]
00000000: 6479 4bbd 6e8d 9dbd 3b7a 8f3d 9f68 543d
00000010: 79f0 94bd d999 b13b 6163 aabd a957 3b3d
00000020: f4eb ee3c a304 76bc bdb0 7b3d 0c52 b43c
00000030: a70a 6fbd f201 523d ee3d 923c 010e 8e3d
00000040: 1537 683d 68df 0cbd 0643 50bd 96fd 9c3d
00000050: 5662 a0bd 5f92 043d 2354 3ebc 47b3 923d
00000060: 4c1c 83bd aa42 0bbd b6de a2bb ac18 713c
00000070: 44a8 89bd d828 4fbc eaea 6b3d 1eb2 af3c
00000080: 0edb ad3d 425d 7b3d 3c25 153d b0e6 9cbd
00000090: ce26 a4bd d1d3 843d a584 4c3d 7733 20bd
000000a0: b81e 6f3d 6ea8 89bd a242 8abd 0de9 9ebd
000000b0: 385b 953d 5773 83bd c930 843a c5b6 34bd
000000c0: 2c30 26bd cc7f 5e3d a59f 9ebd eeb1 b13c
000000d0: f165 c7bc 51c1 6f3d 5409 1b3d 93c6 a2bd
000000e0: 1abb 6e3c 7f1f ab3d 2ae5 a7bd 74ae e73c
000000f0: 820d 10bd 1754 13bd bd2a ba3c 9170 a2bd
00000100: f66d aa3c 6965 8ebd 9ae5 a03c ff73 203d
00000110: f457 903d 3ace f9bc eabc 9ebd 0ca1 38bd
00000120: e400 633c 28b2 a3bd 8628 5f3d cd03 8f3c
00000130: 6eec a8bd 4a48 e93c 4127 34bd 813a 82bd
00000140: 402b 8fbc 40e3 abbd be4e 6d3d bc80 bcbc
00000150: 6707 9ebd 07a7 7dbd 8872 66bc 8227 f6bc
00000160: 80ea f5bc bed6 56bd ebb3 5e3b 4d1a c1bc
00000170: b1d1 ac3a df96 1e3d 3aed 7fb8 a2c7 e93c
00000180: d003 8a3c 61de 263d c72e c3bc 70bf 25bc
00000190: 6929 343c 9d2b 8c3d 5a16 94bd d436 7b3d
000001a0: 9317 99bd 5272 d73c 9fea 913d e348 e83c
000001b0: 2d56 be3c 03aa 66bd fdab 973c 63f8 dc3b
000001c0: 63bc 053d 4834 703d 0c5b bebc 0a92 6ebd
000001d0: 2314 233c a4c0 653d 3b24 f33c 8583 26bd
000001e0: 1ab6 9ebd 6322 3abd 2d18 8ebd f8bd 113d
000001f0: 270f 503c 3f4d b7bd 439e b1bd ba8b b3bd
-0.049676314 -0.07692991 0.070057355 0.051857587 -0.07272429 0.0054199514 -0.08319736 0.045737896
0.029165246 -0.015015754 0.061447848 0.02201178 -0.05835977 0.051271386 0.017851796 0.06936265
0.056693155 -0.034392744 -0.05084517 0.07665555 -0.07831256 0.032366153 -0.011616739 0.07163101
-0.064018816 -0.033999123 -0.004970397 0.014715355 -0.06721547 -0.012644015 0.05759708 0.021447238
0.08489047 0.061368234 0.036412463 -0.07661188 -0.08015214 0.06485713 0.049931187 -0.03911158
0.058378905 -0.067215785 -0.067509905 -0.07759295 0.07292789 -0.06418484 0.001008534 -0.044119615
-0.040573284 0.054321095 -0.077452935 0.021691289 -0.024340602 0.05853397 0.037850693 -0.07948031
0.014570976 0.08355617 -0.081980065 0.028281428 -0.035169132 -0.035968866 0.022725457 -0.079316266
0.020804387 -0.06952936 0.019640733 0.039173122 0.07048026 -0.030493844 -0.07750876 -0.04507546
0.013855193 -0.07992965 0.054482006 0.017457867 -0.082482204 0.028476853 -0.043982748 -0.06358815
-0.017476678 -0.08392954 0.057936423 -0.023010604 -0.07716256 -0.061926868 -0.014065392 -0.030048136
-0.030019045 -0.052450888 0.0033981751 -0.023572112 0.0013185052 0.0387181 -6.1017672e-05 0.028537575
0.016847521 0.04073942 -0.023826016 -0.010116443 0.010996201 0.06844256 -0.07230826 0.061331585
-0.074751996 0.02629963 0.071248285 0.028355068 0.023234451 -0.05631448 0.018514628 0.006743477
0.032650363 0.05864361 -0.023236774 -0.058244742 0.009953531 0.05609192 0.029680362 -0.04065277
-0.07749577 -0.04544295 -0.06938205 0.03558156 0.012698925 -0.089502804 -0.08672764 -0.08766885

conv2.nn.0.weight f4 [128, 128]
00000000: 3c3e 85bc fd0f 82bd 0123 aebd f15f 73bd
00000010: a027 04bc 4464 16bc 5a04 583d 0aa1 4ebd
00000020: fec4 0fbd f41f 37bd 94ce b73c 42e6 07bd
00000030: 035b b0bd 3b5b aebd b9af 463d 9fbe 2a3c
00000040: 95c3 89bd 3b2a 8ebd 862d 92bd 808b 8ebd
00000050: d53d 7bbd c184 763d 4a87 a7b9 6f0c 953d
00000060: f781 253d f31f 963d 2b0f aebd 0f9b 4f3c
00000070: c92f a6bd 6c1f 8f3c aefe 0d3d 1f1f a83d
00000080: 073d 803d af27 acbc dbae 843d 4c42 22ba
00000090: b950 1c3c 7bda a2bc 17e1 ac3d d346 b23d
000000a0: 6e22 83bc efda f53c 10d3 d33c 4164 d9bb
000000b0: 067b aebc 46fb aebd 3f9c 71bd f7e0 203d
000000c0: ce3c a7bd 20ac a53c 0961 053d 9241 b3bd
000000d0: 5626 8a3c 2920 563d 9687 9f3d 279c 9dbd
000000e0: 320e d1ba 78f3 a6bd 5609 553d d76f 19bc
000000f0: f0a4 9e3b f202 2d3d a956 b1bd 823b 43bd
00000100: 663c 4abc e887 a6bc 1dc7 0a3c 3747 84bd
00000110: 3569 003c 54fd 41bd 0514 a1bd e282 643d
00000120: 820b 9e3d 208e aabc c2b3 b0bd 1da5 5d3d
00000130: e5b0 24bd 5399 3fbc b070 a03d 4e3b 233d
00000140: 0e35 833b 20e7 883c 0148 153d 9269 11bd
00000150: 9016 113d a70f a93d 1f2b 15bd 6ffe d4bb
00000160: 17a5 6bbc fd2d a33b 992f 873b 1bd2 a5bd
00000170: af03 173d 8d44 91bd 3220 9d3d 1892 af3c
00000180: 7b91 17bd 594a a63d ffc3 0fbd b3aa 3ebd
00000190: 67a2 a3bc 1f20 8abc ed43 f33b 4b39 19bd
000001a0: bf85 a53c ab1d c13c ad85 1fbd 6f49 06bd
000001b0: 8a0d b03d f4cd 973c 6acc 393d f37f a3bd
000001c0: e67d 003d d460 8f3c 8966 483b 5ec7 9f3c
000001d0: b9cd 913d 9718 fe3c 8f54 a13c f656 b83c
000001e0: ae57 4fbd c500 f53b 69fd a9bd dc9e 1cbc
000001f0: c804 8b3d e10b 55bd ff2e dd3c 7980 873d
00000200: 572a 353d 55e0 2ebd 75fb 5e3c 2210 98bd
00000210: 527e 303d b504 043d f55d 2abd a106 0cbd
00000220: ee3a 9c3d 607e 0d3c 7f6c 953d 5dd7 0f3d
00000230: b342 85bd ba6e 4ebc 08f0 4c3d 2d1a fabc
00000240: ee45 77bd 0c8d cdbc b2bc a83d 499b 6c3c
00000250: 126f 303d bd54 693c 20a1 edbb b926 47bd
00000260: 82ec 253d 2a02 703d eb83 2cbd 78b1 743c
00000270: 2555 943d af9f 843d b600 9cbd b2de 93bd
00000280: ab44 9abd 2615 433d b3e3 fd3c 8465 d33c
00000290: 1126 343d ed7c b1bd b65f 773d c06e 45bc
000002a0: 2e54 05bd 0044 85b8 8000 b23c fa88 dfbc
000002b0: 6ad9 f9bc 00d2 b8bb d6a6 a1bd 18fb 973d
000002c0: c77a b23d 4ed3 613d f022 af3c 3917 98bd
000002d0: d863 2b3d 7d5a 473d 83c0 29bd 02f9 08bd
000002e0: ec0e e8ba 853f a6bc da92 0c3d 3aa0 1abd
000002f0: 045d 81bd 2e1a 16bd 948e 663d d8a3 4e3c
00000300: 75a6 fdbc c133 a23d 83c7 3cbd 993a 4dbc
00000310: 66ea 7c3d fbed 9abd 5772 acbd a96e 893d
00000320: 24b7 4f3d 20cf d8bb 97e9 693c ef9e b7bd
00000330: 5e2c 83bd 85ec 6c3d b0a1 4ebd 7136 8cbd
00000340: e94f 2e3d e7ad 833d a124 d73c 9943 9dbd
00000350: bde2 b3bd ada4 823c c346 d0bb 06a8 90bd
00000360: ffba 3bbd 9b45 a2bb 3447 bdbc 94ca 5bbd
00000370: d4d3 cdbc 8129 0abc 4a8e 52bd ad09 d0bc
00000380: 0788 5cbc 31ae bebc 5211 4c3d c061 50bb
00000390: da9f 1a3d e30f 2c3d 94f1 983c bda9 9bbd
000003a0: 0090 07b9 157c 85bd 99df 843d 133d 3a3d
000003b0: a891 8dbd 7212 97bd 4739 973d f982 223d
000003c0: 9af2 8cbd 76af 9e3d 6d40 d33c 1155 42bd
000003d0: bd3b d9bc c88b 12bc e588 0a3d 2165 733d
000003e0: 9a4b 4dbd 6490 e4bc 17b7 5e3d 7551 b1bd
000003f0: 43fd b93c ffa6 ad3d 8282 6abd a0f5 293d
-0.016265027 -0.06350706 -0.0850277 -0.05941767 -0.008066088 -0.009179179 0.052738525 -0.050446548
-0.035099976 -0.044708207 0.022437371 -0.033178575 -0.08611109 -0.085134946 0.048507426 0.010421424
-0.067267574 -0.069416486 -0.07137589 -0.06960201 -0.061338264 0.060185198 -0.0003195352 0.07277762
0.040407147 0.073303126 -0.08498987 0.012671246 -0.08114583 0.017471038 0.03466671 0.08209061
0.0626164 -0.021015016 0.064786635 -0.00061896886 0.00954073 -0.01987957 0.0844137 0.08704915
-0.016007628 0.030011622 0.025857478 -0.0066342657 -0.021298897 -0.0854402 -0.0589869 0.039277043
-0.081658944 0.020223677 0.032563243 -0.08752741 0.016863983 0.052276764 0.07789533 -0.07695799
-0.0015949665 -0.08151907 0.052010857 -0.009365044 0.0048414394 0.042239137 -0.08659107 -0.047664173
-0.012343502 -0.020328477 0.008470324 -0.06458896 0.007837583 -0.047360733 -0.078651465 0.055788882
0.07717039 -0.020819724 -0.08628036 0.054112542 -0.040207762 -0.01169427 0.078339934 0.03985148
0.0040041273 0.016711771 0.03644562 -0.03550107 0.035421908 0.082549386 -0.036418077 -0.0065000574
-0.014382622 0.0049798475 0.004125547 -0.08096715 0.036868747 -0.07093153 0.076721564 0.021431968
-0.037003975 0.081196494 -0.035099026 -0.04654951 -0.0199749 -0.01686102 0.007423869 -0.037408154
0.020205377 0.023573717 -0.038945843 -0.032784875 0.08596332 0.018530823 0.04536096 -0.07983389
0.031370066 0.017502226 0.0030578694 0.019504245 0.071193166 0.031017585 0.019693641 0.022502404
-0.050620727 0.0074768984 -0.08300287 -0.009559359 0.06788021 -0.05201328 0.026999949 0.06616301
0.04422983 -0.04269441 0.013609757 -0.07424952 0.04308922 0.03223105 -0.04159351 -0.03418601
0.076284274 0.008636087 0.072960846 0.035117496 -0.065068625 -0.012599641 0.0500336 -0.03053006
-0.060369425 -0.02509167 0.08239116 0.01444132 0.043074675 0.014241395 -0.0072518736 -0.048620913
0.040508755 0.058595814 -0.042117994 0.01493489 0.072428025 0.0647577 -0.07617323 -0.0722021
-0.075326286 0.04762759 0.030992365 0.025805242 0.043981615 -0.08666406 0.06039401 -0.012050331
-0.032550983 -6.3546e-05 0.021728754 -0.027286995 -0.030499179 -0.0056402683 -0.078931496 0.07420939
0.08714824 0.055133156 0.021378964 -0.07426304 0.041843265 0.04867028 -0.04144336 -0.033440597
-0.0017704642 -0.02029396 0.034319736 -0.03775046 -0.063165694 -0.03664606 0.056288317 0.012612306
-0.030963162 0.079200275 -0.046088707 -0.012526178 0.061746977 -0.075649224 -0.08420246 0.0671056
0.050711766 -0.006616488 0.014276884 -0.08965861 -0.06404947 0.05784275 -0.050447166 -0.068463214
0.042556677 0.064296536 0.026262583 -0.07678909 -0.08783481 0.015947664 -0.0063560917 -0.07063298
-0.04583263 -0.0049521453 -0.023105241 -0.05365999 -0.025125422 -0.008432747 -0.05140523 -0.025395239
-0.013460166 -0.02327642 0.049821205 -0.0031796545 0.037750103 0.04200734 0.01866988 -0.076007344
-0.00012928247 -0.065178074 0.0648796 0.0454684 -0.06912547 -0.07376565 0.07383972 0.039675687
-0.0688221 0.0774831 0.025787557 -0.047444407 -0.026517743 -0.008944459 0.03382196 0.059422616
-0.050120927 -0.027900882 0.054373827 -0.08658115 0.022703772 0.084791176 -0.05725337 0.041494012

conv2.nn.0.bias f4 [128]
00000000: a16e 4abd f71b 16bd 3d3d d7bb 4e75 4c3d
00000010: 8b31 b4bd 3aca 32bc ab71 a93c ab43 243d
00000020: 7ff3 283c dcff 8fbd 6d60 63bd bd68 f03c
00000030: 4903 2a3d 1c0d 2c3b 54ae d8bc f755 b0bd
00000040: 6ece 7b3d 1ede 47bd 1cd2 debc 1136 0f3d
00000050: ed76 91bd 05a5 5d3d 567e 9a3d 458c 103d
00000060: 5315 ce3c 2031 75bd 1862 fcbc 4f38 6ebc
00000070: 4104 86bd ca07 66bd 1b68 dabc 52b4 ba3c
00000080: 65eb 763c 8dd0 fd3c 33e3 013d 5fa4 ad3d
00000090: 323e 8b3d aa28 9a3d 81ef c63c cc29 4cbd
000000a0: a9a3 223d 97a8 36bc 78db 78bd e7dd 6b3d
000000b0: d70e 153b e9ef a93d 7ef6 babc 2b41 423d
000000c0: 34fb 1c3a a1e0 83bd 6cc1 85bd f50c 14bd
000000d0: 0736 28bd 249a 0abd f8a4 863c 92fb 97bd
000000e0: 0957 c9bc 20a4 00bc 1c69 9b3d 5fee 84bd
000000f0: cceb a6bd 4032 2e3c 1634 0b3d 9bc9 5dbd
00000100: 64c9 863d 4673 b4bd 4f79 b6bd dfe6 f73c
00000110: f32c 99bd 4382 b2bd 3407 593d c197 4cbd
00000120: 19e3 8c3d 198a 263d a0f4 f3bb cea5 68bd
00000130: 461f 1bbc 19bc d3bc 9618 24bd 16fd 17bd
00000140: 1f21 2d3d e888 6abd 71c9 30bd a270 a1bd
00000150: a2db 9e3d b140 35bd 8269 e6bc a855 793d
00000160: eab0 60bd 3a3f a13d dbb9 87bd f23b 6fbd
00000170: 80ff d63c 764a 8a3c b8a8 eebb 12de 5e3b
00000180: 504b 983c 7f39 523d cc74 80bd fce5 883d
00000190: 1d9b 9fbd e719 963d aea6 b0bd 87ca 87bd
000001a0: 1fbb a53d f5c6 f73c 77b6 6abd 68ef 6cbd
000001b0: a77c fa3c da4e b1bd 3c4b 603d 29cb a6bd
000001c0: 63d1 f2bc 3319 6dbd 359d 403d 0c72 3c3d
000001d0: 40b9 65bd 07aa a33d 3848 ca3c 44bb 75bd
000001e0: 0470 39bd 77de aabd b89f a83d e087 883d
000001f0: 5865 0ebd dea3 983c 265c 913c aef7 b13d
-0.04942191 -0.036647763 -0.0065685795 0.049916558 -0.08798512 -0.010912472 0.020684084 0.040103596
0.01031196 -0.07031223 -0.05551188 0.029346818 0.04150704 0.002625293 -0.026450314 -0.086101465
0.061476164 -0.04879581 -0.027199797 0.03496367 -0.071027614 0.054112453 0.07543628 0.03529002
0.025156653 -0.059861302 -0.030808493 -0.014539792 -0.0654378 -0.056159772 -0.02666097 0.022791062
0.015070771 0.030983234 0.031710815 0.08478617 0.06798972 0.07527287 0.024284126 -0.049844548
0.03970686 -0.011148593 -0.060756177 0.05758467 0.002274444 0.08297712 -0.022822615 0.04742543
0.000598836 -0.06439329 -0.06531033 -0.03614517 -0.04106715 -0.033838406 0.016436085 -0.0742103
-0.024577634 -0.00785163 0.075884074 -0.06490778 -0.081504434 0.010632098 0.03398522 -0.054147344
0.06581381 -0.08811049 -0.089098565 0.030261455 -0.074792765 -0.08716252 0.052985385 -0.04994941
0.06879253 0.040659044 -0.007444933 -0.05679875 -0.009467905 -0.025846528 -0.04006251 -0.037106596
0.042267915 -0.05725947 -0.04316086 -0.07882811 0.077567354 -0.044251148 -0.028126482 0.060872704
-0.05485622 0.07873388 -0.06627246 -0.058406778 0.026244879 0.016881209 -0.0072832964 0.0034006876
0.0185906 0.051324364 -0.06272277 0.06684491 -0.077932574 0.07329159 -0.086255416 -0.06630426
0.08092331 0.030246237 -0.05730292 -0.057845503 0.030577017 -0.08657618 0.05475925 -0.081442185
-0.029640859 -0.05788536 0.047024924 0.0460072 -0.05608487 0.079914145 0.02469264 -0.059993044
-0.045272842 -0.08343213 0.08233589 0.06666541 -0.034764618 0.018632825 0.017744135 0.08689819

conv2.nn.2.weight f4 [128, 128]
00000000: f05e 87bd c872 d33c 7ec8 9fbd 72da 563d
00000010: 0424 bbbc a30c 803d 0ce1 403d 2161 35bd
00000020: a2b7 adbd 8511 263d 70ee b0bc 6808 82bc
00000030: 3e9e 88bc 6b69 053c 3d29 143d bfbf a23d
00000040: fa82 80bb 9a31 8b3c 864a 3fba 1806 ac3d
00000050: 21c2 153d 033a c3bc f918 833d d6c9 f53c
00000060: abd7 6f3d 29ca b4bd 13e1 a93d c313 9fbd
00000070: 7064 a13d bc4c a83d 4879 59bd ba84 223b
00000080: 20db a5bd e39b e1bc 74ab 6f3d 9a52 453d
00000090: 9722 253d 3f33 53bc df40 f7bc 54c8 983d
000000a0: dd60 d8bc c847 683d c86e d53c 552f 443d
000000b0: 15fd 24bd ce49 cd3b afac 77bd 7866 31bd
000000c0: c10a 683d 3ee1 873c 4c6f 54bd 808b 2e3c
000000d0: ecaf bfbc 4284 b03d df22 983d 255b bbbc
000000e0: f411 a03c 2081 78bc 22bb 1d3d 408b a83d
000000f0: 0806 053c 9caf ab3d adb3 7c3d f5a5 0bbd
00000100: cb78 a7bd fa73 85bd 2985 3a3c 245c c33c
00000110: f88a 923d 2dca 293c d878 a63d 2247 a03c
00000120: 7b49 69bd e934 453d ef89 a23d 1062 b23c
00000130: 4462 fcbc a283 ea3c 3942 df3c 920d 60bd
00000140: 95db 7b3d 2c36 463d a6e3 d43c 8955 94bd
00000150: 2548 60bd 3cc0 6dbd 47f6 5c3c 98c8 3c3c
00000160: 8ee6 21bd e610 063d 9480 fcbc 60d1 703d
00000170: 557e 833d a4ed 70bd c9da 7abd 29b8 8c3d
00000180: 35ab 4c3d da86 e4bc 8850 a5bd 5950 ba3c
00000190: 6a13 093d d5b0 95bd 4ec4 b0bd 24ba 833d
000001a0: 1cb8 8ebd 1a73 fabc 6cf4 9fbd df3c 4bbd
000001b0: 9476 743d 365e b2bd 470f 8a3c 4908 5f3d
000001c0: 4079 1fbd 7836 913d d9d1 8b3d a48d 8c3d
000001d0: a9a3 43bd 88f3 3abd fa6a 913d c4eb 24bd
000001e0: 1089 83bd 00b0 4838 b576 043d 0497 30bd
000001f0: 5949 8b3d 757b 37bd 0da5 80bd b2da 3ebd
00000200: afcb 943d 9a7e 89bd 0652 713d 3027 c53b
00000210: 7dfa 483d a683 243d 122f 8cbd d4f9 733c
00000220: edfd 55bd 8f8c a1bd eca5 263d cde3 87bd
00000230: fa32 5b3d 4025 563d 24be 403d 08b0 b73c
00000240: eff4 f6bc af12 cc3c 2980 7d3d daa1 55bd
00000250: c56b 1c3c f104 c3bc e2cd 8bbd 77fc f0bc
00000260: f14f af3d 8aab 80bd 6e3b 653d 7265 df3c
00000270: 3c58 8cbd 7dbe 313b b0c4 78bd 9b5d fdbc
00000280: 5017 a03b ed9f 793c 355d 0c3c 91ee 463d
00000290: 00e2 433c 386b 90bd f17b 1ebd dfd5 48bc
000002a0: 76b2 133d 6d6a 653b 380f b3bc 9d7b f53c
000002b0: db27 b2bd 1def acbd 9a28 c3bc 29e9 69bd
000002c0: 14a9 f43c bc7b 9a3d 5528 08bd 80bd 7cbb
000002d0: 6aa2 d6bc 3e17 20bd b369 be3c a3a8 423d
000002e0: fa01 383b c009 3bbb d6f2 853c e540 85bb
000002f0: d161 953d 4206 96bd 2b52 003d 37af 803d
00000300: fcaa 4abd cae5 0c3d cc96 94bd 4680 89bd
00000310: 1b36 e93c a6b5 703d 7d4a 3ebc b33d cbbb
00000320: f9d2 48bd a423 093d f42f 8a3c 046d ba3c
00000330: eaca 713d f90f c9b9 0df3 413d 46d9 c0bc
00000340: 363e e83c 0e69 e6bc 9fc5 0c3d cb1e 9d3d
00000350: 6a0e a0bd 9a3f 10bd 032c f9bc 382c 863d
00000360: 91dd a23d 091e ae3d 04b0 593a 2520 a83d
00000370: 73e3 85bd aed7 ea3c 5a9e 19bd c4c2 9e3c
00000380: adad 233d b86c 84bd 0070 a33b eff6 52bc
00000390: d031 a23d 20ca aabd a76f 3f3d 83a3 a3bc
000003a0: 1bc5 563d f170 793d e03d 893d d0cb 573c
000003b0: 6236 383d 5368 c73c a786 7b3d 0f33 8e3d
000003c0: 9176 2abd 7ad4 293d 0aa9 793d 401d 0e3d
000003d0: 13a6 9ebd 0edf 18bd d2c1 b7bc 70a6 72bd
000003e0: 497c 0fbd 3c08 883c 2d13 953d 8b39 9dbd
000003f0: 480b 033c 26d8 97bd 10e6 63bd b839 7bbd
-0.06609905 0.025811568 -0.07801913 0.05245442 -0.022844322 0.0625241 0.04708962 -0.044282082
-0.08482291 0.04054405 -0.02159807 -0.015873149 -0.016677018 0.008142809 0.03617214 0.07946729
-0.0039218636 0.016991425 -0.00072971766 0.083996 0.03656209 -0.023831373 0.064012475 0.03000347
0.058555286 -0.088276215 0.082948826 -0.07767441 0.07880485 0.08217761 -0.05309418 0.002479835
-0.080984354 -0.027540153 0.05851312 0.048174478 0.04031619 -0.012890636 -0.0301823 0.074600846
-0.026413376 0.05670908 0.026053801 0.0478967 -0.04028042 0.0062649017 -0.06046742 -0.043310612
0.05665088 0.016586896 -0.051863953 0.010653377 -0.023399316 0.08618976 0.07428526 -0.02287061
0.01953981 -0.015167505 0.038508542 0.08229685 0.008119114 0.08383104 0.06169479 -0.034093816
-0.08177336 -0.065162614 0.011384287 0.023847647 0.071554124 0.010363144 0.08128518 0.019565169
-0.056954842 0.048146162 0.07936465 0.021775275 -0.030808575 0.02862722 0.027253257 -0.05470044
0.061488707 0.048391506 0.025987457 -0.07242877 -0.054756302 -0.058044657 0.0134864515 0.011522435
-0.039526515 0.03273096 -0.03082303 0.058793426 0.0642058 -0.05882038 -0.061243806 0.06871063
0.049967963 -0.027896333 -0.08072001 0.02274339 0.03346578 -0.07309119 -0.08631192 0.06431988
-0.0696871 -0.030572463 -0.07810292 -0.049618598 0.059683397 -0.087093756 0.016852988 0.05445126
-0.038933992 0.07090467 0.06827135 0.06862953 -0.0477635 -0.045642406 0.07100482 -0.040263906
-0.06422627 4.784763e-05 0.03233977 -0.04311277 0.06801099 -0.044795472 -0.06281481 -0.046595283
0.07265412 -0.067136005 0.058916114 0.0060166344 0.04906701 0.040164612 -0.068449154 0.014891107
-0.052244116 -0.078881375 0.04068558 -0.066352464 0.053515412 0.052281618 0.047056332 0.022422805
-0.03014609 0.024911253 0.0618898 -0.052156307 0.009547179 -0.023806067 -0.068263784 -0.02941726
0.085601695 -0.062827185 0.05596488 0.027270053 -0.06852767 0.0027121597 -0.06073445 -0.030928424
0.0048855916 0.015235883 0.008567144 0.04856736 0.011955738 -0.070517 -0.03869242 -0.012258022
0.036058865 0.0035006062 -0.021857843 0.02996617 -0.08699008 -0.08444045 -0.023823071 -0.057107124
0.029865779 0.07543132 -0.03324159 -0.00385651 -0.026200492 -0.039084665 0.02324376 0.047524106
0.002807735 -0.0028539747 0.016351145 -0.004066574 0.072940476 -0.07325412 0.03132836 0.062834196
-0.04947947 0.03439883 -0.07255325 -0.06713919 0.028468182 0.058766983 -0.011614439 -0.0062024235
-0.049029324 0.033481255 0.016868569 0.02275706 0.059031405 -0.00038349608 0.047350932 -0.023541104
0.028349977 -0.028126266 0.034368154 0.07671889 -0.07815249 -0.035216905 -0.030416494 0.06551403
0.07952417 0.085018225 0.00083041214 0.08209256 -0.06537523 0.028667297 -0.03750453 0.01937998
0.039960552 -0.06466049 0.0049877167 -0.012876256 0.07919657 -0.083393335 0.04673734 -0.01997543
0.05243407 0.060898725 0.06701255 0.013171151 0.04497374 0.024341738 0.06140771 0.069433324
-0.04161698 0.0414624 0.060952224 0.034695864 -0.0774652 -0.037322097 -0.022431288 -0.05924076
-0.035030637 0.016605489 0.07279048 -0.07676991 0.007998295 -0.07414274 -0.055639327 -0.06133434

conv2.nn.2.bias f4 [128]
00000000: 69b8 683d c753 1ebc 8f4b 153d 8215 4a3b
00000010: 04f5 a53d e0d7 7a3b fc23 9d3d 32e9 47bc
00000020: fcf1 8cbd 036e 14bc cc88 a03d 334c 96bd
00000030: afe5 69bd e8f1 f33c 5e73 c8bc 7a5c a53d
00000040: 16e1 34bd 092a 81bc 9945 b6bc 5c7b b3bc
00000050: 24ab 95bd a4a3 af3d c4e6 c7bb 7f68 84bd
00000060: fdfc b5bd e00f 1bbd 7153 c9bb 7dce 9c3c
00000070: 0018 5939 64ba 7939 2b9c ed3c 7328 11bd
00000080: 094b 8dbd 74d9 89bb 9aa2 dcbc 6fd8 a83d
00000090: 2ca8 50bd a4d5 393d b057 7e3c f301 b13d
000000a0: f307 af3d 35ce 9cbd 96ec 7d3d a01e 4b3d
000000b0: 650b 26bd b8fd 903d b1c2 55bd 55da 863d
000000c0: f1ba 82bd 3084 bbbd 8d87 853c 8121 58bc
000000d0: 886d 503d 099f 073b 6012 9cbb b732 a8bd
000000e0: 3078 a33d 767e 6a3d 6958 aebd 11dd a83d
000000f0: 019e 39bd b7f9 db3c 8383 c3bc d7fa b2bd
00000100: 3d0c 51bd eadd 343c fd5d bf3c b619 683d
00000110: bede 6ebc 0ae1 8bbb 8658 353c 783f 5e3c
00000120: 4949 20bd aa8f 06bb 18bc 9bbd dd31 b1bd
00000130: 2cf6 813a d885 b33d a120 103d 833a 833c
00000140: d314 82bd 03b1 143b bdd6 b1bd 9aa8 89bc
00000150: 7bde 8b3d 1e91 a83d 98b2 ea3c 93a4 d9bb
00000160: be48 0abd 7920 0fbd 1a17 b3bb 3542 813c
00000170: 9f03 f63b edfe 3ebc 08ed db3c ba28 8abd
00000180: 7dfc 87bb 439d a63d ba12 743d 274b 5abd
00000190: cd22 54bd 6e19 843d 3fba ebbc b61f 953d
000001a0: adc4 a53d f563 043d a97e 433c aa8b 63bd
000001b0: f539 86bd f701 67bd e7a4 643d 047f 3f3c
000001c0: e1fe 1d3d 9864 ac3c 6e8d dabc a82c 303c
000001d0: 544f 8dbd 5ab6 37bd 307b b2bd 380e aabc
000001e0: d864 bdbd 7297 cebc 0af3 cbbc eee4 8abd
000001f0: e350 053d 9cf3 43bb 15cf 29bd 8bce 843d
0.056816492 -0.009663529 0.03644901 0.0030835574 0.08103374 0.0038275644 0.07672879 -0.012201594
-0.06882092 -0.009059432 0.07838592 -0.073387526 -0.05710381 0.029778436 -0.024469074 0.08074279
-0.04415997 -0.015767114 -0.022249984 -0.021909408 -0.07308033 0.08576134 -0.0061005075 -0.064652435
-0.08886144 -0.037856936 -0.00614398 0.01914143 0.00020703673 0.00023815926 0.02900513 -0.035438966
-0.068990774 -0.0042068306 -0.026933003 0.082444064 -0.05094163 0.04536976 0.015523836 0.0864295
0.08546438 -0.07656518 0.061993204 0.049589753 -0.04053821 0.07079643 -0.052187625 0.06584612
-0.063833125 -0.09156072 0.016299987 -0.013191582 0.050885707 0.0020694158 -0.0047629327 -0.08212798
0.07981908 0.05724951 -0.08512957 0.0824529 -0.0453167 0.026852472 -0.02386642 -0.0873925
-0.051037062 0.011039237 0.023360247 0.056665145 -0.014579473 -0.00426877 0.011068469 0.013564937
-0.03913239 -0.0020532408 -0.076042354 -0.08652089 0.0009915284 0.08765763 0.035187367 0.016019111
-0.06351628 0.0022688515 -0.08683536 -0.016804028 0.06829544 0.08230804 0.028649613 -0.006641933
-0.03376078 -0.034943078 -0.0054654004 0.01577864 0.007507756 -0.011657459 0.026846424 -0.06746049
-0.004149972 0.08135464 0.05958817 -0.053294327 -0.051791 0.06450163 -0.028775332 0.07281439
0.080941536 0.03232189 0.011932054 -0.055553116 -0.06554023 -0.05639836 0.055821326 0.011687998
0.03857315 0.02104406 -0.026678767 0.010752834 -0.06899896 -0.04485164 -0.087149024 -0.020758733
-0.0924775 -0.0252187 -0.024896163 -0.06781946 0.032547843 -0.0029899841 -0.041457254 0.064847074

conv3.nn.0.weight f4 [128, 128]
00000000: 2a77 8f3d 648c 0fbd e4b9 703c d07a 853d
00000010: 31d5 4ebd 2eb5 3cbd 94b1 693b 23ce 893d
00000020: 3352 87bd 7e49 66bc 148b 483c 0b2a 8fbd
00000030: 2490 b8bd 666a ac3b c9d3 70bb 35f0 903b
00000040: 4e0a 4f3d a4d3 e53c 6f25 7ebd 09ad 213d
00000050: 2a1d 5abd 7881 953d 750f 2c3d b5cd 473d
00000060: dd4f e23c ec09 733d cacf b7bc 11ad 9cbd
00000070: c676 f4bc 00db 8c3d 625d 34bd 1fc7 443d
00000080: 4ead 2ebd e222 65bd 257f 0b3d 07a2 763d
00000090: 2a0c 653d 07ed 573d 3c62 a03d cdbd 5c3d
000000a0: 2e57 803d c4a6 f039 5680 0d3b 0653 14bd
000000b0: aa94 8a3d 4cd2 45bd 2fa3 02bd 98a2 923d
000000c0: c7cb 77bc 0431 48bd c566 57bd 855e 433d
000000d0: a341 9fbd b0ec 99bc 0318 393d cce0 b5bc
000000e0: 0f87 b8bd d247 7dbd 8fdb 483d 904c 5bbd
000000f0: ed88 aebd 5e0c 5f3d 9cfd 903c d43c b3bd
00000100: 7441 f8bc a12e c2bc b556 8e3d 67c1 a4bc
00000110: 9879 3b3c 67cb bcbd 2f2f 8dbd 625a 87bd
00000120: 1b90 b43d 33b6 abbd cfcb 82bd f22c cb3c
00000130: 1f84 12bd c911 78bd 05fc 71bd 17ca 86bc
00000140: b7d6 50bd d60c a6bc 5677 61bd 368f 313d
00000150: 0d73 303d a4fe a33c dc81 7f3d 0f3d 35bd
00000160: dc40 a4bd b85d d2bb 5432 913d 13f5 933c
00000170: 7b8a 22bd 6eeb 5e3d 48e5 263d a841 8d3d
00000180: 106f 93bd 3618 a03d 6af2 80bd 214b 68bd
00000190: 1e1c 0bbd e9dc 863c 78f4 8e3d 95d7 1fbc
000001a0: 7c0b 04bd 983a 3ebd 230d ec3c 42f4 283d
000001b0: b172 97bd 773e 7bbd 0471 a93c 8747 bcbc
000001c0: 83b0 7bbc a713 99bd 3df4 b7bd f602 11bc
000001d0: 928d 90bd ad2d 463d 260c 0d3d d904 05bd
000001e0: 3850 05ba 89f4 983c 1c6d 2b3c 7b01 a63d
000001f0: 7cfd 15bd 88ca a7bd 6337 d43c 532c dabc
00000200: 2f78 91bd 9f8a b6bb cb11 74bd 7d72 1e3d
00000210: 14d2 963d 2093 f43b 266a 9e3c 3425 003c
00000220: c660 843d 4ed0 1fbd e8e0 aebd 430f 46bb
00000230: 9045 70bc f7b8 b43c 073b 8cbd 90dd 0a3d
00000240: 52f6 a3bd 0f95 a8bd e10a 9cbd fd10 44bd
00000250: 669d 103d 5e68 913d 7d65 223d fdcb aebd
00000260: 98fd 423d 7325 6dbd 62f5 433d 34cb 6839
00000270: e1b5 18bd 85cf 0dbd 5a1a 25bd 5dd1 723d
00000280: b36d 0dbd 666d 94bd b97f b0bd ce5a f33c
00000290: 7236 233d 7b13 ad3d 1b52 ad3c 00fa a4bc
000002a0: b26e 80bd e5dc c33c 0f10 8bbd 1d70 193c
000002b0: 40af 6d3d 7a2d 463d ea2a 0b3c 3d2d cfbc
000002c0: 0772 a9bd 2d22 8c3c 4511 8bbd ab89 bcbc
000002d0: f126 263d 7913 bc3d 05f2 ab3d bf6a 91bd
000002e0: 10c3 82bd 6986 64bc 745c 023d 11ef 9e3c
000002f0: 20e4 97bd 9e40 2eba b063 80bd fc00 b03d
00000300: aac0 76bd 7c39 9a3c 5236 693d 10fd 8c3d
00000310: 99dd a33d 08f0 0a3c 8f2e 2e3c 54c4 80bd
00000320: 0062 bcbb 6243 53bd 7017 903b 3eb9 b83b
00000330: b74a b23d 4a3d b13c 3324 bc3c 3410 d83c
00000340: cf2b ad3d ba52 2d3d 9c14 913c 1b93 33bd
00000350: e714 01bd 0f7e 953c 84e3 293d 41a7 a83d
00000360: 1b08 b03d 3409 433d 3bbb 9bbd adcc 8e3d
00000370: 49d6 853c bfd6 8e3d 8ace a43c 036c 65bd
00000380: 30fd b7bc a8a0 6fbd abe0 dd3c d904 b63d
00000390: 18a3 78bc 260f 9fbd a83b 333d 5351 f5ba
000003a0: 22d5 2d3d e7cb a83d f7d3 053d 5e3f 7d3d
000003b0: 54ff 963c 62f6 453d 83fd f13c c837 8c3d
000003c0: 8232 6abd 2eb8 6ebd 5275 06bc 5ee1 6b3d
000003d0: 602e 25bd 0339 073d 70f0 c13c 140e bc3c
000003e0: feb7 633d d15d 36bd 8120 42bd 22be 433d
000003f0: cefd 133c 9066 803d e23a 263d 6753 8d3d
0.070051506 -0.035045996 0.014692757 0.06517565 -0.050496284 -0.046071224 0.0035658823 0.067287706
-0.06607475 -0.014055608 0.01224019 -0.06990441 -0.09011868 0.005261707 -0.0036747328 0.004423166
0.050546937 0.02805502 -0.06204742 0.03947166 -0.05325047 0.07300085 0.04200693 0.048780162
0.027625972 0.059335634 -0.022437949 -0.07650197 -0.029841792 0.068777084 -0.04403437 0.04804146
-0.042645745 -0.05594147 0.0340568 0.060213115 0.055919804 0.05271628 0.07831237 0.053891946
0.06266628 0.00045900617 0.0021591387 -0.03621199 0.06766637 -0.048296258 -0.031893905 0.071599185
-0.015124268 -0.04887487 -0.052588243 0.047697563 -0.07776191 -0.01878962 0.045188915 -0.022201918
-0.090101354 -0.06183607 0.049037512 -0.053539813 -0.0852221 0.054455154 0.017699055 -0.087518364
-0.030304648 -0.023703875 0.06950132 -0.020111753 0.011442564 -0.092184834 -0.06893765 -0.06609036
0.088165484 -0.08384361 -0.0638653 0.024801705 -0.03577053 -0.060563836 -0.059078235 -0.016453786
-0.050986018 -0.020269793 -0.05504545 0.043349467 0.04307847 0.020018883 0.062379703 -0.044247683
-0.080201834 -0.0064198636 0.070896775 0.018061196 -0.039682847 0.054423742 0.040746003 0.068972886
-0.07198918 0.07817118 -0.06296237 -0.056712274 -0.03396236 0.01646276 0.069802225 -0.009755989
-0.032237515 -0.046442598 0.028814858 0.041248567 -0.073949225 -0.061338868 0.020683773 -0.022983326
-0.015361908 -0.074744515 -0.08982132 -0.008850804 -0.070582524 0.048383404 0.034435414 -0.032475326
-0.0005085501 0.018671291 0.010463025 0.08105751 -0.036618695 -0.08192927 0.025905317 -0.026632464
-0.07103001 -0.005570724 -0.05958728 0.038683403 0.07364288 0.0074638277 0.019337725 0.00782137
0.064637706 -0.039017014 -0.08538991 -0.00302215 -0.0146650225 0.022060854 -0.06847196 0.033902705
-0.08005966 -0.08231556 -0.076192625 -0.047867764 0.035306357 0.070999846 0.039647568 -0.085350014
0.047605127 -0.057897042 0.047841437 0.00022200943 -0.03728283 -0.034621734 -0.040308334 0.059281696
-0.034528445 -0.072474286 -0.08618111 0.029706385 0.039846845 0.08450981 0.021157315 -0.02013874
-0.062711135 0.023909042 -0.06790172 0.009365109 0.05802846 0.048383214 0.008494118 -0.025290126
-0.08273702 0.01710614 -0.06790403 -0.023014864 0.04056448 0.091834016 0.08395771 -0.07100438
-0.063848615 -0.0139480615 0.03182645 0.019401105 -0.07416558 -0.0006647202 -0.06269014 0.08593938
-0.060242333 0.018826239 0.05693657 0.06884205 0.08001251 0.0084800795 0.010631218 -0.062874466
-0.005748987 -0.051577933 0.004397325 0.005637317 0.08705657 0.02163567 0.02296648 0.026374914
0.084556215 0.042315222 0.017710023 -0.043841463 -0.031514075 0.018248586 0.04147674 0.08235026
0.08595296 0.0476162 -0.07604071 0.069726326 0.01633753 0.06974553 0.020118017 -0.05601121
-0.022459596 -0.058502823 0.02708467 0.08887643 -0.015175603 -0.07766561 0.043758065 -0.0018716253
0.042439587 0.08242016 0.03267285 0.06182801 0.018432297 0.048330672 0.02953983 0.06846577
-0.057177074 -0.058281116 -0.008206682 0.057587974 -0.04032743 0.033013355 0.02367422 0.022955932
0.05559539 -0.044523064 -0.04739428 0.047788747 0.00903268 0.06269562 0.0405835 0.06900673

conv3.nn.0.bias f4 [128]
00000000: c4c8 99bc eee6 06bd b278 9dbd e3e6 e23c
00000010: 529d babc 78f0 abbd 86a5 633d ace0 913d
00000020: c92d 603d 1af0 bcbc 0308 43bd 1085 5a3c
00000030: bea6 9b3d b87f aa3d 04d2 b9bd d1f9 afbd
00000040: f8a2 70bd e62c 1b3d f41b ccb9 9046 aabb
00000050: 9e11 503d 623b a8bd 1bef 0e3d 8282 993c
00000060: 3507 edbc 1665 dc3b 1b53 8cbd 4b05 2abd
00000070: 9dd0 9a3d 60af 093d 2708 9cbd 4068 b5bc
00000080: 4630 ac3d 3fbc 213d 3ef7 0dbd 3475 093d
00000090: 0a70 0dbd 455d babd 04ec 9abd ab77 f8bc
000000a0: 7635 89bd cabf 8a3d f030 033c 1f60 8bbd
000000b0: aa1e 983d 2fe2 fdbc c086 053d bcc9 b3bc
000000c0: 8b38 a13d ee6e 483d 3f3b a0bd b810 563d
000000d0: 5204 17bc 8cf5 a23c b4ce ad3d 79d7 5b3c
000000e0: 512a fdbc 9922 153c cc82 a2bc 4494 a13c
000000f0: ccb8 4f3c 4c40 aabd 4700 923d 9016 2a3c
00000100: 0073 773d 7153 c73b 73bc 343d 1c8d aa3d
00000110: 865d 9cbd 9d2a 61bb c63f 203c 8546 4ebd
00000120: 3e1d 3b3d 09ba 71bd b989 4ebd 0a0c 68bc
00000130: dc9d 673d 1366 173b e268 19bd ed4a cd3c
00000140: e48f 073d 13d3 72bc 3c4b babd 52cf 94bc
00000150: ba77 89bd fa49 c4bc 5b42 2fbc 23c6 47bd
00000160: 58c8 bfbc 686a 4cbc bc7b a33d 4309 b2bd
00000170: 7b29 a23d dca0 4e3d 3a01 a6bd 3bb4 8fbd
00000180: b33a 70bd 1a22 abbc 728f f73c 8719 883b
00000190: 36cf 883d 8072 16bd 7fe9 babc 613e 363d
000001a0: 3bb5 a4bd 544f a0bd 550b ab3d 2e77 c8bc
000001b0: 78b5 88bd aa68 093b e9af 8bbd 4c0e 05bc
000001c0: 0763 f43c 2e49 16bd 3a6a ed3c 35d3 15bd
000001d0: 1359 b1bc 118e 133c 9dac b33d 8901 63bd
000001e0: 9684 bfbc 26b4 99bd 191d 8f3d c094 323d
000001f0: 3674 0a3d d924 91bd 1616 a8bd b442 cbbc
-0.01877249 -0.032935075 -0.076890364 0.027697986 -0.022780094 -0.08395475 0.055577777 0.07122931
0.054731164 -0.023063708 -0.047615062 0.013337389 0.07600163 0.08325142 -0.090732604 -0.085925706
-0.05874917 0.037884615 -0.0003893074 -0.0051964 0.05079805 -0.082144514 0.034895997 0.018738989
-0.0289341 0.0067259176 -0.068517886 -0.041508954 0.07559321 0.033614516 -0.076187424 -0.022144437
0.08407645 0.039486166 -0.034659617 0.03355904 -0.034530677 -0.09099821 -0.07564548 -0.0303305
-0.0669965 0.06774862 0.008007273 -0.06805443 0.07427724 -0.030991642 0.03259921 -0.02194678
0.07872113 0.048933916 -0.078238 0.052262038 -0.009217339 0.019892476 0.08486691 0.013418072
-0.030903967 0.009102487 -0.01983776 0.019724019 0.012678336 -0.08313045 0.07128959 0.010381356
0.060412407 0.006082945 0.04412503 0.08327696 -0.07635026 -0.0034357675 0.00978083 -0.05036022
0.045682184 -0.059015308 -0.05042431 -0.014163027 0.05654703 0.0023101612 -0.03745354 0.025060141
0.03309621 -0.014820832 -0.09096381 -0.018165264 -0.06712289 -0.023961056 -0.010696973 -0.048772942
-0.023410961 -0.012476541 0.07982585 -0.08693173 0.07918068 0.050446376 -0.08105703 -0.07016798
-0.05864973 -0.020890284 0.030219767 0.0041534337 0.06680147 -0.03673029 -0.022816418 0.044493083
-0.080423795 -0.07827631 0.08351771 -0.024470892 -0.066752374 0.0020966926 -0.068206616 -0.008121084
0.029832376 -0.036690883 0.028981317 -0.036578376 -0.02164892 0.009006039 0.08773158 -0.055421386
-0.023378652 -0.07505064 0.06987972 0.04359889 0.033802234 -0.07087106 -0.082073376 -0.02481208
